…
[('request', 1042), ('query', 561), ('inform', 561), ('implicit_confirm', 466), ('explicit_confirm', 265), ('greet', 134), ('goodbye', 132)]
F1: request -> 1.000000
F1: query -> 0.993711
F1: inform -> 1.000000
F1: implicit_confirm -> 0.992424
F1: explicit_confirm -> 1.000000
F1: greet -> 1.000000
F1: goodbye -> 1.000000
Initialized Train Max len 104 Min len 10 Avg len 26.453333333333333 Max ctx 20 covers 0.30444444444444446
Initialized Valid Max len 56 Min len 10 Avg len 24.98 Max ctx 20 covers 0.35
Initialized Test Max len 104 Min len 12 Avg len 32.548 Max ctx 20 covers 0.172
ZeroShotPtrHRED (
  (embedding): Embedding(534, 200, padding_idx=0), parameters=106800
  (embedding1): Embedding(534, 200, padding_idx=0), parameters=106800
  (utt_encoder): RnnUttEncoder(
    (embedding): Embedding(534, 200, padding_idx=0)
    (rnn): EncoderRNN(
      (input_dropout): Dropout(p=0.0)
      (rnn): GRU(201, 256, batch_first=True, dropout=0.3, bidirectional=True)
    )
  ), parameters=811824
  (Semantic_guide): Semantic_guide(
    (embedding): Embedding(534, 200, padding_idx=0)
  ), parameters=106800
  (ctx_encoder): EncoderRNN(
    (input_dropout): Dropout(p=0.0)
    (rnn): LSTM(512, 512, batch_first=True, dropout=0.3)
  ), parameters=2101248
  (policy): Linear(in_features=512, out_features=512, bias=True), parameters=262656
  (connector): LinearConnector(
    (linear_h): Linear(in_features=512, out_features=512, bias=True)
    (linear_c): Linear(in_features=512, out_features=512, bias=True)
  ), parameters=525312
  (connector_f): LinearConnector_f(
    (linear): Linear(in_features=512, out_features=512, bias=True)
    (Relu): ReLU()
  ), parameters=262656
  (connector_vg): LinearConnector_vg(
    (linear_enc): Linear(in_features=512, out_features=200, bias=True)
    (linear_dec): Linear(in_features=200, out_features=512, bias=True)
    (Relu): ReLU()
    (tanh): Tanh()
    (Sigmoid): Sigmoid()
  ), parameters=205512
  (calculate_T): calculate_T(
    (embedding): Embedding(534, 200, padding_idx=0)
  ), parameters=106800
  (decoder): DecoderPointerGen(
    (input_dropout): Dropout(p=0.3)
    (rnn): LSTM(200, 512, batch_first=True, dropout=0.3)
    (embedding): Embedding(534, 200, padding_idx=0)
    (attention): Attention(
      (linear_out): Linear(in_features=1024, out_features=512, bias=True)
      (dec_w): Linear(in_features=512, out_features=512, bias=True)
      (attn_w): Linear(in_features=512, out_features=512, bias=True)
      (query_w): Linear(in_features=512, out_features=1, bias=True)
    )
    (project): Linear(in_features=512, out_features=534, bias=True)
  ), parameters=2894151
  (nll_loss): NLLEntropy(), parameters=0
  (l2_loss): L2Loss(), parameters=0
  (l2_loss1): L2Loss(), parameters=0
  (softmaxfn): fn_softmax(
    (linear): Linear(in_features=512, out_features=512, bias=False)
    (softmax): Softmax()
  ), parameters=262144
  (softmax): Softmax(), parameters=0
  (softmax1): Softmax(), parameters=0
) Total Parameters=7752703
**** Training Begins ****
**** Epoch 0/100 ****
Train init with 517 batches with 0 left over samples
Train add with 10 warm up batches
200/1000-(0.000): Train nll 1.219 PPL 3.384 attn_loss 4.234 distance 0.161 distance_semantic 2.280 loss_pack_warm 4.086 distance1 0.037
…
